models/kaggle_model.pth (torch, 981852 bytes, 22 tensors)

weight f4 [32, 1, 3, 3]
0	0x3e4221e6	0.18958244
1	0xbdb46370	-0.08808029
2	0xbe94a384	-0.29031003
3	0xbe90e62a	-0.283006
4	0x3df29703	0.118452094
5	0xbcb23f7c	-0.021758787
6	0x3e60f942	0.21970084
7	0x3dcb4087	0.09924417
8	0xbe7174c3	-0.23579697
9	0xbcf9ed25	-0.030508587
10	0x3e90bdcb	0.282698
11	0xbe94d56b	-0.29069075
12	0x3e018eeb	0.12652175
13	0x3e67dfed	0.22644015
14	0xbe53cdbb	-0.20683949
15	0x3e870750	0.26372766
16	0xbe90eb90	-0.2830472
17	0xbeac0eb3	-0.33604965
18	0xbc93adc7	-0.0180272
19	0xbe87d0ae	-0.26526397
20	0xbe9f5722	-0.31121165
21	0xbea1dae0	-0.316123
22	0x3d263805	0.04058077
23	0x3d0b9f80	0.034087658
24	0x3e5571bd	0.20844169
25	0xbdc631db	-0.09677478
26	0x3e8f27fd	0.27960196
27	0x3bb25d48	0.005443249
28	0x3e6c9f12	0.23107556
29	0x3d963ab3	0.07335415
30	0xbe98a537	-0.2981355
31	0xbe433b86	-0.19065675
32	0xbdf1cc44	-0.11806539
33	0xbddd1e02	-0.10796739
34	0x3e003920	0.12521791
35	0xbab25841	-0.0013606624
36	0x3db15c60	0.08660197
37	0x3e0e15cd	0.13875504
38	0x3e05751c	0.13032955
39	0x3e3dc9e1	0.18534042
40	0xbdc1d58b	-0.09464558
41	0x3e30b2a8	0.17255652
42	0x3d82e614	0.0639154
43	0x3e301b63	0.17197947
44	0xbda7861d	-0.08179877
45	0x3d4ed1f8	0.05049321
46	0x3bc052e2	0.0058692554
47	0x3c5d1153	0.0134929
48	0xbe753992	-0.23947743
49	0xbdd84e17	-0.105617695
50	0xbe2dbd95	-0.16966851
51	0x3e230a45	0.15921886
52	0x3d315313	0.043292116
53	0xbd2c6aa2	-0.04209388
54	0x3d5e9578	0.054341763
55	0xbea37f90	-0.3193326
56	0x3d1a850b	0.037724536
57	0xbe90d46a	-0.2828706
58	0x3eb0529a	0.3443802
59	0xbd8c36b3	-0.068463705
60	0x3deea7f6	0.1165313
61	0x3dd00793	0.10157695
62	0xbd8fae2f	-0.07015645
63	0xbe9b25ed	-0.30302373
64	0xbe848838	-0.25885177
65	0x3dd19ead	0.10235343
66	0xbdc2f446	-0.09519248
67	0x3cacdf21	0.02110249
68	0x3dcdd9fe	0.10051344
69	0x3e289b79	0.16465558
70	0x3de3618e	0.111025915
71	0x3e315207	0.17316447
72	0x39537f9a	0.00020170063
73	0xbe553e4a	-0.20824543
74	0xbdc80ab9	-0.0976767
75	0x3e89a6c1	0.26885036
76	0xbeafa7b3	-0.34307632
77	0x3c08bb13	0.008345383
78	0x3e9e130b	0.30873904
79	0xbd875ed7	-0.06609886
80	0xbe00d553	-0.12581377
81	0xbe4ae7c9	-0.19814982
82	0x3c8d74d0	0.017267615
83	0xbdc92c8d	-0.098229505
84	0x3e705788	0.2347089
85	0xbea3b6b7	-0.31975338
86	0x3dc2fe51	0.09521163
87	0xbdbfd75e	-0.0936725
88	0x3eaf21fe	0.3420562
89	0xbe944ca8	-0.28964734
90	0x3e53cdb6	0.20683941
91	0x3c1f23d3	0.009713131
92	0xbe3242ef	-0.17408346
93	0xbdbae924	-0.09126499
94	0x3e622340	0.2208376
95	0xbe9e390c	-0.30902898
96	0x3e6a51b4	0.2288273
97	0x3d1e7cff	0.038693424
98	0xbe5f4554	-0.2180379
99	0xbd4b42af	-0.04962414
100	0x3e76ce9f	0.24102257
101	0x3e9d92ad	0.30775967
102	0xbe6b94d8	-0.23005998
103	0xbe465b14	-0.19370681
104	0xbe14dd99	-0.14537658
105	0xbdc85b11	-0.097829945
106	0xbe6c12b5	-0.23054011
107	0xbbb60239	-0.005554464
108	0xbe9267ad	-0.28594723
109	0xbe9a2267	-0.30104372
110	0x3e9159ea	0.2838891
111	0x3e8f373c	0.27971828
112	0xbec0b859	-0.37640646
113	0xbda275e0	-0.07932639
114	0x3e349e11	0.17638423
115	0xbe187709	-0.14889158
116	0xbe03253c	-0.12807173
117	0xbd84f57f	-0.06492137
118	0x3e4b9f0a	0.19884887
119	0x3df2f7f5	0.118637
120	0x3eb28260	0.34865093
121	0x3cf9514c	0.030434273
122	0xbb52e5b0	-0.0032180361
123	0xbcf6051c	-0.030031733
124	0xbe8a42fb	-0.27004227
125	0x3dcd8784	0.10035613
126	0xbca031af	-0.019554941
127	0x3de5462f	0.11195027
128	0xbe94489c	-0.28961647
129	0x3e5b46ea	0.2141377
130	0x3e1e0fa9	0.15435661
131	0xbeb33fcb	-0.35009608
132	0xbe87f04c	-0.2655052
133	0x3e990872	0.29889256
134	0x3e455080	0.1926899
135	0xbe11fe76	-0.14257225
136	0xbe94672e	-0.2898497
137	0xbe727994	-0.23679191
138	0xbc08f8ba	-0.008360082
139	0x3e1aa125	0.15100534
140	0xbe91bc7b	-0.28464112
141	0x3dff10ae	0.12454353
142	0x3e30f37d	0.17280383
143	0xbde19eb0	-0.11016595
144	0xbc7617d6	-0.015020331
145	0xbecd72e2	-0.4012671
146	0xbe3298f7	-0.17441164
147	0x3e4baab4	0.19889337
148	0x3defe604	0.11713794
149	0x3e04f590	0.129843
150	0x3e13077b	0.14358322
151	0x3d6d7e03	0.057981502
152	0xbde1c9ef	-0.11024844
153	0xbeabd60e	-0.33561748
154	0xbe21e3b1	-0.15809514
155	0x3d89287c	0.06697175
156	0x3e8cb9a7	0.27485391
157	0x3d8d5fef	0.069030635
158	0x3e8d80ca	0.2763732
159	0xbe88abf0	-0.26693678
160	0x3e862f29	0.26207855
161	0xbebbf017	-0.36706612
162	0x3e8b248f	0.2717633
163	0x3e9df87f	0.3085365
164	0x3d3cdd36	0.0461094
165	0xbe9a80fa	-0.30176526
166	0xbe06080a	-0.13089004
167	0xbd09494e	-0.033517174
168	0xbe211380	-0.15730095
169	0x3d82951b	0.06376096
170	0xbd985fef	-0.07440173
171	0x3e712e51	0.23552825
172	0xbe7ee2da	-0.24891225
173	0xbe298d25	-0.16557749
174	0x3dfdf114	0.12399498
175	0x3de975ff	0.11399459
176	0x3e39dfba	0.18151751
177	0x3df4a047	0.11944633
178	0xbe643c3a	-0.222886
179	0xbd059eb0	-0.03262204
180	0x3e9c9ec7	0.30589887
181	0x3e63147d	0.22175784
182	0xbd0a23c5	-0.03372552
183	0xbde5db4e	-0.1122347
184	0x3e63c4ca	0.22243038
185	0xbeba19ce	-0.36347812
186	0x3e87adf3	0.264999
187	0x3e7c6b6f	0.24650358
188	0xbdb36de2	-0.08761193
189	0x3ea3f430	0.32022238
190	0x3dbaf814	0.091293484
191	0x3eaa60b2	0.33276898
192	0x3e484909	0.1955911
193	0x3c5c7f6c	0.013458114
194	0x3d0ad74e	0.033896737
195	0xbe62f8db	-0.22165243
196	0xbe4ce5a9	-0.20009483
197	0x3e98f7e5	0.2987663
198	0xbe3fcbb9	-0.18730058
199	0xbe46501e	-0.193665
200	0xbe177151	-0.1478932
201	0xbe7845ba	-0.24245349
202	0x3dc9629b	0.098332606
203	0x3eabfee7	0.33592913
204	0xbeba45ee	-0.36381477
205	0xbdf359a1	-0.1188233
206	0x3e3bff9d	0.18359227
207	0x3dc2c05e	0.095093474
208	0xbeb1bd9c	-0.34714973
209	0x3d90b862	0.07066418
210	0xbdc437b9	-0.09580941
211	0x3e2d9eae	0.16955063
212	0x3e55c9b9	0.20877732
213	0xbe9908e9	-0.2988961
214	0x3d1978fa	0.037468888
215	0xbdcdc434	-0.100471884
216	0xbe608435	-0.21925433
217	0xbdb8cecf	-0.090238206
218	0xbe646d88	-0.22307408
219	0xbe3cc373	-0.18433933
220	0x3e5d5f3d	0.21618362
221	0xbe90a380	-0.2824974
222	0x3e2acf3f	0.1668062
223	0x3d1bf1b3	0.0380723
224	0x3d0cdd63	0.03439082
225	0x3e40a6c6	0.18813619
226	0x3e432a88	0.19059193
227	0x3de01319	0.109411426
228	0x3e274c7d	0.16337772
229	0xbe2e8963	-0.17044596
230	0xbe37cf90	-0.17950273
231	0xbea6294f	-0.3245339
232	0xbc3093c6	-0.010777419
233	0xbc331270	-0.010929689
234	0xbe28b3a1	-0.16474773
235	0x3e520899	0.20511092
236	0xbe70dad1	-0.23520972
237	0xbe39dfd9	-0.18151797
238	0x3ea4cbe9	0.3218682
239	0x3e96642c	0.293733
240	0xbda2d3fa	-0.079505876
241	0xbebc6cc9	-0.36801746
242	0xbe075f66	-0.13219985
243	0x3e431ecb	0.19054715
244	0x3e3b3544	0.18282038
245	0xbe716117	-0.23572193
246	0x3e719b55	0.2359441
247	0xbd259b1c	-0.040431127
248	0xbd3f1ca3	-0.04665817
249	0xbe093d42	-0.13402274
250	0xbe953fe7	-0.29150316
251	0xbe219d59	-0.1578268
252	0x3d9fda53	0.07805314
253	0xbc4a2aa2	-0.012339266
254	0xbd403d28	-0.046933323
255	0x3e3195ca	0.17342296

bias f4 [32]
0	0x3e205a3b	0.1565942
1	0x3e580ca1	0.21098568
2	0xbe8c1ad1	-0.2736421
3	0xbe16b4b9	-0.14717378
4	0xbeaa4ae6	-0.33260268
5	0x3e35d73d	0.17757888
6	0x3e25279e	0.16128394
7	0x3df31bb3	0.118705176
8	0x3e534a1a	0.20633736
9	0xbea37d75	-0.31931654
10	0xbe81e1b0	-0.25367498
11	0xbe8dc311	-0.27687886
12	0xbda8d049	-0.08242852
13	0xbe5c4b91	-0.21513201
14	0xbd4a5cd0	-0.04940492
15	0x3c53632c	0.012902062
16	0x3eb96ff0	0.36218214
17	0x3d17b62f	0.03703898
18	0xbe0db0c3	-0.1383696
19	0x3e4679f5	0.1938246
20	0xbd452ab1	-0.048136417
21	0x3e86ed77	0.26353046
22	0xbe3454c0	-0.17610455
23	0x3e4c519e	0.1995301
24	0xbea6521e	-0.32484525
25	0x3e86fcff	0.26364896
26	0x3ebf5105	0.373665
27	0xbea94e9e	-0.33067793
28	0xbe8ebd0a	-0.278786
29	0xbe1c7231	-0.15277936
30	0xbe1333cb	-0.14375226
31	0x3e51f8fc	0.20505136

weight f4 [32]
0	0x3f5f5d87	0.87252086
1	0x3f831a6c	1.0242438
2	0x3f8d8a2c	1.1057792
3	0x3f84c71e	1.0373266
4	0x3f49c78f	0.7882013
5	0x3f8fc1b1	1.1230985
6	0x3f835183	1.025925
7	0x3f7c6345	0.98588973
8	0x3f88f65c	1.0700183
9	0x3f884f8f	1.0649279
10	0x3f6fdedb	0.93699425
11	0x3f8ffd2e	1.1249139
12	0x3fa243d0	1.2676945
13	0x3f3aa709	0.72911125
14	0x3f74ae37	0.9557833
15	0x3f9206f5	1.1408373
16	0x3f8a0803	1.0783695
17	0x3f7725df	0.9654216
18	0x3f7982d9	0.9746528
19	0x3f45495d	0.7706507
20	0x3f57fcbe	0.8437003
21	0x3f41c9da	0.75698626
22	0x3f99ae5e	1.2006338
23	0x3f90c3cd	1.1309754
24	0x3f85710c	1.0425124
25	0x3f82b5be	1.0211713
26	0x3f8d3e47	1.103463
27	0x3f8d6f51	1.1049596
28	0x3f9692f7	1.17636
29	0x3f90fa4c	1.1326385
30	0x3f83027e	1.0235136
31	0x3f3a3cef	0.7274923

bias f4 [32]
0	0xbda6877d	-0.08131311
1	0xbd95056d	-0.072764255
2	0x3ddf04f7	0.10889619
3	0x3d94abdf	0.07259344
4	0xbe85caf5	-0.26131406
5	0x3e0d474e	0.13796732
6	0x3dba34c7	0.09092098
7	0xbdf00a08	-0.11720663
8	0x3d05b5b2	0.03264398
9	0xbd7d95b7	-0.061910357
10	0xbddfc663	-0.10926511
11	0x3d37f545	0.04491164
12	0x3d50ed81	0.05100775
13	0xbe886dca	-0.26646262
14	0xbe5b519d	-0.21417852
15	0x3d201195	0.039079268
16	0xbda59798	-0.08085555
17	0xbdf8cb64	-0.12148169
18	0x3d00b10e	0.031418853
19	0xbe77a26e	-0.24183056
20	0xbe3c47f2	-0.1838682
21	0xbe8027de	-0.25030416
22	0xbd9afb7e	-0.075674996
23	0xbddab947	-0.1067987
24	0xbd5af1ab	-0.05345313
25	0x3d00f276	0.03148123
26	0x3bee8bb3	0.007279837
27	0x3d9a51e8	0.075351536
28	0x3a2e4824	0.0006648323
29	0xbbb8a3db	-0.0056347675
30	0xbd012263	-0.031526934
31	0xbe471cce	-0.19444582

running_mean f4 [32]
0	0x3defbc87	0.117058806
1	0x3e34ffd4	0.17675716
2	0xbea9e7de	-0.33184713
3	0xbe3d6e33	-0.18499069
4	0xbe6c9c4d	-0.23106499
5	0x3e1027ac	0.14077634
6	0x3e1b78ae	0.15182754
7	0x3df7b808	0.12095648
8	0x3e316efe	0.17327496
9	0xbeb8418a	-0.35987502
10	0xbe883603	-0.26603708
11	0xbea87858	-0.32904315
12	0xbe223b74	-0.15842992
13	0xbe2158f2	-0.15756586
14	0xbd2bb2b4	-0.04191847
15	0xbd8c01dc	-0.06836292
16	0x3eb5f80b	0.35540804
17	0x3c3015da	0.010747397
18	0xbe0c9aff	-0.13731001
19	0x3e563bb0	0.20921206
20	0x3d24482c	0.04010789
21	0x3ec12da8	0.37730145
22	0xbe86accc	-0.2630371
23	0x3e27e71d	0.16396756
24	0xbeca473e	-0.39507478
25	0x3e82e98f	0.25568816
26	0x3ea819e2	0.32832247
27	0xbebe25c2	-0.37138182
28	0xbea996c8	-0.3312285
29	0xbe233d43	-0.15941338
30	0xbe85c8dd	-0.2612981
31	0x3ead0727	0.3379452

running_var f4 [32]
0	0x3c5f0087	0.013610966
1	0x3d1213c9	0.0356634
2	0x3d0c37ce	0.034232907
3	0x3c475d0b	0.012168179
4	0x3d250fc9	0.040298257
5	0x3c0a1c22	0.008429559
6	0x3bb16d15	0.005414615
7	0x3cc9c81a	0.024631549
8	0x3ca216b5	0.019786218
9	0x3c0ba543	0.008523288
10	0x3c9e1927	0.019299103
11	0x3cea7c3d	0.028623695
12	0x3d01d899	0.031700704
13	0x3c9ebf63	0.01937837
14	0x3c35d039	0.011097007
15	0x3d1c74d2	0.038197346
16	0x3c519396	0.012791535
17	0x3c1fc61c	0.009751823
18	0x3c5862e9	0.013207176
19	0x3bef984b	0.007311856
20	0x3d4374b7	0.04771873
21	0x3d6ab9dd	0.05730616
22	0x3d626bf2	0.055278726
23	0x3c33da0a	0.0109772775
24	0x3cdb6f27	0.0267864
25	0x3c7a7923	0.01528767
26	0x3c5cd9c1	0.013479651
27	0x3cf739ef	0.030178992
28	0x3cc878c7	0.024471654
29	0x3c1710b3	0.00922029
30	0x3d83f7e2	0.06443764
31	0x3d8893bf	0.06668805

weight f4 [64, 32, 3, 3]
0	0xbd36d5bc	-0.044637427
1	0xbcb2880d	-0.02179339
2	0xbb785ced	-0.0037897185
3	0xbd21d0b7	-0.039505687
4	0xbd8eda25	-0.069752015
5	0xbd3a3954	-0.04546483
6	0x3d240e69	0.040052805
7	0x3d50ead9	0.05100522
8	0xbd1f3cc6	-0.038876317
9	0xbdd07944	-0.101793796
10	0xbd8dba29	-0.06920273
11	0xbe238d3d	-0.15971847
12	0xbdef784a	-0.11692865
13	0xbd844a60	-0.064594984
14	0xbe0a3abe	-0.13498971
15	0xbd34e9a8	-0.044168144
16	0x3cfd1ed7	0.030898495
17	0x3d72d795	0.059287626
18	0xbd3a40fb	-0.045472126
19	0x3d825883	0.063645385
20	0xbc04f980	-0.008116126
21	0xbd077942	-0.033074625
22	0x3d1c8250	0.038210213
23	0x3c825d18	0.015913531
24	0x3cf6052f	0.030031769
25	0x3c879d0f	0.016554384
26	0xbcb03658	-0.021510288
27	0xbcc977e8	-0.024593309
28	0xbc67a201	-0.014137746
29	0xbd872bfa	-0.06600185
30	0xbd49918d	-0.049211074
31	0xbb199c1e	-0.0023439
32	0xbdacaf4b	-0.08431872
33	0x3d466999	0.04844055
34	0x3d96ce52	0.07363571
35	0x3d835db7	0.06414359
36	0xbcb8f861	-0.022579374
37	0xbb36443a	-0.0027811662
38	0x3d22da0d	0.03975873
39	0x3d2300df	0.039795753
40	0x3c35deea	0.01110051
41	0xbc9aa990	-0.018879682
42	0x3bc64efa	0.006051895
43	0xbd8c80a7	-0.06860476
44	0x3cc3c256	0.023896378
45	0xbc629f61	-0.013831944
46	0xbd01d249	-0.031694684
47	0x3b676ffb	0.0035314548
48	0x3c017912	0.007902401
49	0xbcbf0a24	-0.023320265
50	0xbd12bc5c	-0.035824165
51	0x3dae0293	0.08496585
52	0x3dee5481	0.116372116
53	0x3c6fad4c	0.01462872
54	0x3ca96134	0.020676233
55	0x3cd880b1	0.026428552
56	0x3b3a836c	0.0028459681
57	0x3b47d81b	0.00304938
58	0xbd0654c5	-0.032795686
59	0xbd77d64a	-0.060507096
60	0x3b43c833	0.0029873967
61	0x3d192b30	0.037394702
62	0xbceded20	-0.029043734
63	0xba1143b5	-0.00055414
64	0x3ced3a94	0.028958596
65	0xbce5598d	-0.027996803
66	0xbdb3b8be	-0.08775471
67	0xbc7bcd26	-0.015368735
68	0xbc97a9b3	-0.018513536
69	0xbd8f2e50	-0.06991255
70	0x3ccf4aad	0.025304163
71	0xbcf753a9	-0.03019126
72	0xbc86d783	-0.016460186
73	0xbc093891	-0.008375303
74	0xbd0ae753	-0.033912014
75	0xbd7bc1a5	-0.06146397
76	0xbdb04058	-0.086060226
77	0xbe195710	-0.14974618
78	0x3d07b274	0.03312917
79	0x3c776dc3	0.015101853
80	0x3d086eb5	0.033308703
81	0x3d589f97	0.05288657
82	0xbdb353c2	-0.0875621
83	0xb8b082d0	-8.4167e-05
84	0xbd9796e8	-0.0740183
85	0x3ce03ec5	0.02737368
86	0xbe22e290	-0.15906739
87	0x3b51bcd4	0.003200342
88	0x3d8925ec	0.06696686
89	0xbc86b86a	-0.016445357
90	0x3c583157	0.013195357
91	0x3c7d9ae4	0.015478823
92	0xbd976425	-0.07392148
93	0xbce251aa	-0.027626831
94	0xbda02b71	-0.07820786
95	0xbdbbd97e	-0.09172343
96	0xbd321421	-0.043476228
97	0xbc3f2940	-0.01166755
98	0x3d59df7b	0.053191643
99	0xbd83ada6	-0.06429605
100	0xbdb580ec	-0.088624805
101	0xbd92d9a4	-0.07170418
102	0xbc635db4	-0.013877321
103	0x3d8578d1	0.065171845
104	0xbd82fc6f	-0.06395804
105	0x3d269359	0.040667865
106	0xbc10145b	-0.008793916
107	0x3d30262c	0.043005154
108	0x3c90c467	0.017671777
109	0x3d2f5bcf	0.042812165
110	0xbdb2b3e4	-0.08725718
111	0x3cc3a187	0.023880733
112	0x3ca4c4cc	0.020113371
113	0xbd3c5813	-0.04598243
114	0xbd703368	-0.058642775
115	0x3c8b54f7	0.017008288
116	0x3dbc56d8	0.09196252
117	0xbd828794	-0.06373516
118	0xbce3eb70	-0.027822226
119	0x3d3b4059	0.045715664
120	0xbcc05d71	-0.023482056
121	0x3da335bf	0.07969236
122	0x3bff8115	0.00779737
123	0xbb2b6062	-0.0026149978
124	0xbd0f8606	-0.035039924
125	0xbcf2dedc	-0.029647283
126	0x3d80e931	0.06294478
127	0x39ade91a	0.00033170806
128	0xbd5a0006	-0.05322268
129	0x3d62ffad	0.055419613
130	0x3a91aa57	0.0011113387
131	0xbbcfb3e3	-0.006338583
132	0xbda6f875	-0.08152858
133	0xbd6c4e6a	-0.05769197
134	0xbe1052d2	-0.14094093
135	0x3b972b45	0.0046133124
136	0xbda55b89	-0.080740996
137	0xbc051b85	-0.008124237
138	0xbd32c686	-0.043646358
139	0xbcbd5655	-0.023112455
140	0x3b9d996f	0.0048095505
141	0xbd22faa7	-0.039789822
142	0x3d18cbb4	0.03730364
143	0x3d514f7c	0.051101193
144	0xbd83b2ac	-0.06430563
145	0x3d07bcec	0.033139154
146	0xbcb34365	-0.021882722
147	0x3cc72504	0.024309643
148	0x3cf743cc	0.030183695
149	0xbd67c46a	-0.0565838
150	0x3b0e7be2	0.002174132
151	0xbddf3337	-0.1089844
152	0xbd3a5f71	-0.045501176
153	0xbd165b48	-0.036708146
154	0xbce547c1	-0.027988316
155	0xbd0d783a	-0.034538485
156	0x3d803bc1	0.06261397
157	0x3d15c3fb	0.036563855
158	0x3d0aa7ee	0.033851556
159	0xbd62cab4	-0.055369094
160	0xbce6fb1f	-0.028195916
161	0x3d3dc86d	0.04633372
162	0xbd2d4ef7	-0.042311635
163	0xbdc2bcd7	-0.095086746
164	0xbe209034	-0.15680009
165	0x3d166727	0.036719467
166	0x3d5351cc	0.05159168
167	0x3d2b7418	0.041858763
168	0x3d883458	0.06650609
169	0xbbbe39b1	-0.005805217
170	0xbd07dd04	-0.03316976
171	0x3caf93b2	0.021432731
172	0xbd463c31	-0.048397247
173	0xbc844941	-0.016148211
174	0x3c489a35	0.012243797
175	0x3bf6fac3	0.0075372173
176	0xbd522299	-0.051302526
177	0xbd3cec12	-0.04612357
178	0xbc86be0d	-0.016448045
179	0xbdab4fc8	-0.083648264
180	0x3c880715	0.01660494
181	0xbd131e73	-0.03591771
182	0xbcc5b54e	-0.024134304
183	0xbd88a2d6	-0.066716835
184	0xbd9da982	-0.07698347
185	0xbc8f40d1	-0.017486962
186	0xbd23066a	-0.03980104
187	0xbcc826f5	-0.024432639
188	0xbc06973f	-0.008214771
189	0xbd139dbc	-0.0360391
190	0xbd8f8fe8	-0.0700987
191	0x3d48d229	0.04902855
192	0x3cb56aef	0.022145716
193	0x3da04338	0.07825321
194	0x3dd192c3	0.10233071
195	0xbd4a1e7c	-0.04934548
196	0xbca633ad	-0.020288313
197	0x3d613ea6	0.054991387
198	0x3d73b14a	0.059495248
199	0x3dd682a2	0.10474135
200	0xbd62631e	-0.055270307
201	0xbcb6faf1	-0.022336455
202	0xbdea1691	-0.114300855
203	0xbe0a858c	-0.13527507
204	0xbcd6404c	-0.026153706
205	0xbca474fb	-0.020075312
206	0x3d415d31	0.047208015
207	0x3cdcb81d	0.02694326
208	0x3db0bcae	0.08629738
209	0xbcdf7afe	-0.027280327
210	0x3cf5a056	0.02998368
211	0xbc2031e2	-0.009777518
212	0xbdc3f61a	-0.095684245
213	0xbe06d613	-0.131676
214	0x3bbb2683	0.005711378
215	0x3ca4b350	0.020105034
216	0x3d6d18bb	0.057884913
217	0xbd2fcc4f	-0.042919453
218	0xbd978425	-0.073982514
219	0xbd386555	-0.045018513
220	0xbb57fc51	-0.0032956789
221	0xbcadbeb6	-0.021209102
222	0x3dc246d7	0.09486168
223	0x3d82d029	0.0638736
224	0x3d91b41d	0.07114432
225	0xbdca849a	-0.09888573
226	0xbd892ff5	-0.066986
227	0xbdd5e525	-0.104440965
228	0xbcff90e8	-0.031197026
229	0xbcd14dd7	-0.025549812
230	0x3ca1ed72	0.019766543
231	0x3d29393c	0.04131435
232	0x3c28407e	0.010269282
233	0x3c6a4369	0.014298298
234	0xbd321c0d	-0.043483783
235	0x3dcfc352	0.10144676
236	0x3dd16155	0.10223643
237	0x3dada8f6	0.08479492
238	0x3d4664fb	0.048436146
239	0xbdb4fc74	-0.08837214
240	0xbc8b9b42	-0.017041806
241	0xbe19e7c9	-0.15029825
242	0xbde9d6f3	-0.114179514
243	0xbd0bff9c	-0.034179315
244	0xbd949a00	-0.07255936
245	0xbdeec987	-0.11659532
246	0xbd18f04f	-0.03733855
247	0xbd03d411	-0.032184664
248	0x3b8070cd	0.003919697
249	0x3d68380e	0.056694083
250	0x3d9841a9	0.07434399
251	0xbd840512	-0.064462796
252	0xbd613af1	-0.05498785
253	0xbdce5044	-0.10073903
254	0xbe35698a	-0.17716041
255	0xbe0001aa	-0.12500635

bias f4 [64]
0	0x3bc90e15	0.006135712
1	0x3d13c57b	0.036077004
2	0xbd101466	-0.035175703
3	0x3cfaec91	0.030630382
4	0xbd18caa2	-0.03730262
5	0x3d0d3a7e	0.03447961
6	0x3d445a03	0.047937404
7	0x3d5f9e0b	0.05459408
8	0xb9258e74	-0.00015788694
9	0x3cf50622	0.02991015
10	0xbcd7ee52	-0.026358757
11	0x3c90f8ea	0.017696816
12	0x3d5c9eea	0.05386249
13	0x3d213cd8	0.039364666
14	0xba7d768f	-0.00096688507
15	0x3d0b742d	0.03404634
16	0x3ad4cb6a	0.0016234939
17	0x3ccad140	0.024757981
18	0x3ca2bf99	0.019866752
19	0xbd06ea16	-0.032938085
20	0xbd3199c6	-0.04335954
21	0xbd6cf4ee	-0.05785077
22	0xbd422462	-0.04739798
23	0xbd5013eb	-0.050800245
24	0xbd5d3681	-0.054007057
25	0x3ce143a7	0.02749808
26	0xbcf2691d	-0.029591138
27	0x3d0e56ef	0.034750875
28	0x3d2703bc	0.040775046
29	0x3c5cd24f	0.013477876
30	0xbc215beb	-0.009848575
31	0x3c39df15	0.011344691
32	0x3d25eeee	0.040511064
33	0xbcbe0f18	-0.023200557
34	0xbd461747	-0.048362043
35	0xbc47f21b	-0.012203719
36	0x3c9f4016	0.019439738
37	0x3d58cd84	0.05293037
38	0xbca4db0b	-0.02012398
39	0xbc72f536	-0.014828971
40	0xbd61396e	-0.05498641
41	0xbcb5430a	-0.022126693
42	0xbca2226e	-0.019791808
43	0xbc4e5f84	-0.012596015
44	0x3c1074db	0.008816923
45	0xbbc02da6	-0.0058648167
46	0xbb48751d	-0.0030587383
47	0x3caed8b5	0.021343568
48	0xbc804225	-0.01565654
49	0x3c8217ed	0.01588055
50	0x3d22f497	0.03978404
51	0x3d3d490c	0.04621224
52	0x3c1f3427	0.009717024
53	0x3b88a845	0.00417045
54	0x3c826547	0.015917433
55	0xbc020346	-0.007935351
56	0x3d229a33	0.039697837
57	0xbc858cdd	-0.01630252
58	0x3d3a54df	0.045491096
59	0x3d0641ac	0.032777473
60	0xbac8370b	-0.0015275193
61	0x3d0e2b18	0.034709066
62	0x3d30bf50	0.0431512
63	0xbb93ef18	-0.004514586

weight f4 [64]
0	0x3f84f9f9	1.0388786
1	0x3f639436	0.88898027
2	0x3f6c9c55	0.92426044
3	0x3f81c37d	1.0137783
4	0x3f8312f8	1.0240164
5	0x3f8432b8	1.0327978
6	0x3f85cd1f	1.0453223
7	0x3f6f565c	0.9349115
8	0x3f82d72e	1.0221918
9	0x3f90768c	1.1286178
10	0x3f7d3abe	0.9891776
11	0x3f80bb1b	1.00571
12	0x3f734689	0.95029503
13	0x3f8e6cd2	1.1126959
14	0x3f859b7b	1.0438074
15	0x3f80c027	1.005864
16	0x3f81a57e	1.0128629
17	0x3f75baee	0.9598836
18	0x3f89fe38	1.0780706
19	0x3f80f314	1.0074182
20	0x3f811a0a	1.0086071
21	0x3f6774c8	0.9041257
22	0x3f9cb58d	1.2242905
23	0x3f92e8d4	1.1477304
24	0x3f791f96	0.9731382
25	0x3f6682bc	0.90043235
26	0x3f429bd5	0.7601903
27	0x3f8016ca	1.0006955
28	0x3f840c53	1.0316261
29	0x3f71eee2	0.9450513
30	0x3f8b7413	1.0894798
31	0x3f7f1f0b	0.9965674
32	0x3f7d1235	0.98855907
33	0x3f7a5f60	0.9780178
34	0x3f7dac02	0.9909059
35	0x3f87b707	1.060273
36	0x3f8892b7	1.0669774
37	0x3f85f7af	1.0466212
38	0x3f8a37b0	1.0798244
39	0x3f82f44c	1.0230803
40	0x3f8dc265	1.107495
41	0x3f864f84	1.0493016
42	0x3f8257f6	1.0183094
43	0x3f864bca	1.0491879
44	0x3f8af272	1.0855238
45	0x3f640af1	0.89079195
46	0x3f860088	1.0468912
47	0x3f7b29b9	0.9811054
48	0x3f47925e	0.77957714
49	0x3f5ef1a7	0.8708748
50	0x3f711373	0.941703
51	0x3f8ae17a	1.085006
52	0x3f6a0eb2	0.91428673
53	0x3f7996b2	0.9749557
54	0x3f82d7b8	1.0222082
55	0x3f8f0636	1.117377
56	0x3f68da10	0.90957737
57	0x3f779a21	0.9671956
58	0x3f8c15dc	1.0944171
59	0x3f721efd	0.94578534
60	0x3f7a976d	0.9788731
61	0x3f850f34	1.0395265
62	0x3f85cda7	1.0453385
63	0x3f80a89a	1.0051453

bias f4 [64]
0	0x3dfbfc7e	0.123040184
1	0xbe453c99	-0.19261397
2	0xbe440f53	-0.1914647
3	0xbe3dfd8a	-0.18553749
4	0xbe43d78c	-0.19125193
5	0xbe29ca0c	-0.16580981
6	0xbd6c8947	-0.057748105
7	0xbe6f90ec	-0.23395127
8	0x3c20016e	0.009765966
9	0xbe169ca2	-0.14708188
10	0xbdb4582b	-0.08805879
11	0xbdc14e2b	-0.094387375
12	0xbe1546cf	-0.14577793
13	0xbe285706	-0.16439447
14	0xbe19143b	-0.14949124
15	0xbd8d13a4	-0.06888512
16	0xbd0a1bf7	-0.033718076
17	0xbe1801d0	-0.14844441
18	0xbe1a8406	-0.15089425
19	0xbda04db2	-0.07827319
20	0xbe04ae6c	-0.12957162
21	0xbea17692	-0.31535774
22	0x3d51e31b	0.051241975
23	0x3d4503f5	0.048099477
24	0xbe265a57	-0.162454
25	0xbda07145	-0.078341044
26	0xbed70662	-0.41997057
27	0xbe1e6110	-0.15466714
28	0xbdcf79c6	-0.10130648
29	0xbdc34b95	-0.095359005
30	0xbd29e682	-0.041479595
31	0xbdde38bf	-0.10850667
32	0xbe63a647	-0.22231399
33	0xbe56e0f3	-0.20984249
34	0xbe7bf55a	-0.24605313
35	0x3b951f78	0.0045508705
36	0xbde29347	-0.11063247
37	0xbda765ee	-0.081737384
38	0xbe1d57f5	-0.15365584
39	0xbe75ac87	-0.23991595
40	0xbda05f2c	-0.078306526
41	0x3dc627c1	0.09675551
42	0xbe1eca47	-0.1550685
43	0x3ac53f23	0.0015048723
44	0xbd1c1449	-0.038105283
45	0xbe58e94d	-0.21182747
46	0xbdf79cee	-0.12090479
47	0xbd24a190	-0.04019314
48	0xbebdeb1f	-0.37093446
49	0xbe5b828b	-0.21436517
50	0xbdc732a7	-0.09726458
51	0x3d5616d3	0.05226786
52	0xbe57e4da	-0.21083394
53	0x3dd2f3f5	0.10300437
54	0xbd0cbd42	-0.034360178
55	0xbd5899c0	-0.052881002
56	0xbe97fee3	-0.2968665
57	0xbdd053e6	-0.10172252
58	0xbe194e29	-0.14971222
59	0xbe395773	-0.18099765
60	0xbdd4bc08	-0.103874266
61	0xbe38ca64	-0.18045956
62	0xbe1752d6	-0.14777693
63	0xbe1179aa	-0.14206567

running_mean f4 [64]
0	0xbfc995de	-1.5748861
1	0xbfce642c	-1.612432
2	0x3ea2b419	0.3177803
3	0xbf08b845	-0.53406173
4	0xbee1fb20	-0.44136906
5	0xbf08da31	-0.53457934
6	0xbf58199a	-0.84414065
7	0xbf24fd11	-0.6444865
8	0xbff5aa85	-1.9192663
9	0xbf81fcea	-1.0155308
10	0xbfdcba7e	-1.7244413
11	0xbfa43081	-1.2827302
12	0xbf553260	-0.8327999
13	0xbf009bcb	-0.5023772
14	0xbfa0a8c2	-1.2551501
15	0xbff1565b	-1.8854479
16	0xbf3fa2ca	-0.7485777
17	0xc018236c	-2.377162
18	0xbeb79e6f	-0.35863063
19	0xc01de6ed	-2.4672196
20	0xbffc9296	-1.9732234
21	0xbf1996c6	-0.59995687
22	0xbf0a294f	-0.5396928
23	0xbff19105	-1.8872381
24	0xbf54594b	-0.8294875
25	0xbfe3f747	-1.7809838
26	0xbf017bb9	-0.5057941
27	0xbf86b0cc	-1.0522704
28	0xc00bea4d	-2.1861756
29	0xbfad3175	-1.3530718
30	0xbe95f5b9	-0.29289034
31	0xc030cf6a	-2.7626595
32	0xbfbb7cc3	-1.4647449
33	0xbf8bc647	-1.0919884
34	0x3ee6244b	0.44949564
35	0xbfffffb2	-1.9999907
36	0xbf77ba48	-0.9676862
37	0xbef60360	-0.4804945
38	0xbf8995cf	-1.0748843
39	0xbf840e53	-1.0316871
40	0xbfc94ccb	-1.572656
41	0xc00310bb	-2.0478961
42	0xbf228582	-0.63484967
43	0xbfa79020	-1.3090858
44	0xbe6ee52a	-0.23329607
45	0x3edfec77	0.43735096
46	0xbf8f6108	-1.1201487
47	0xbf4ac416	-0.79205453
48	0x3ef41387	0.47671148
49	0xbf9a6c3e	-1.2064283
50	0xbfb980ef	-1.4492472
51	0xbf901093	-1.1255058
52	0xbfc295cc	-1.5201964
53	0xbf4aa6f8	-0.79161024
54	0xbfaf56e1	-1.3698388
55	0xbf4c7b46	-0.798756
56	0xbeb675b5	-0.35636678
57	0xbf886387	-1.0655373
58	0xbf3a7b8b	-0.7284476
59	0x3eb2ec59	0.34945944
60	0x3e1c5f60	0.15270758
61	0xbdd6ec76	-0.1049432
62	0xbf22b6fd	-0.6356047
63	0xbfc409b1	-1.5315458

running_var f4 [64]
0	0x402872ba	2.6320024
1	0x401fdd96	2.4978995
2	0x3fb84162	1.4394953
3	0x3ffdeac6	1.9837272
4	0x3feb13c1	1.8365403
5	0x4010b28b	2.2608974
6	0x4005d0ef	2.0908773
7	0x3ffcd1c3	1.9751514
8	0x401d292c	2.455638
9	0x4008e66a	2.1390634
10	0x4040af72	3.0107083
11	0x405088f0	3.258358
12	0x3fa30d6d	1.2738472
13	0x3ffb54fd	1.9635311
14	0x3fc8507d	1.5649563
15	0x400675e7	2.1009462
16	0x4042e419	3.045172
17	0x40353428	2.8313084
18	0x40180799	2.3754637
19	0x3fadee52	1.3588355
20	0x404786c3	3.1176002
21	0x3f97e4ee	1.1866739
22	0x4042e095	3.0449574
23	0x406946ef	3.6449544
24	0x40441006	3.063478
25	0x4022d667	2.544336
26	0x3fb4f42e	1.4137018
27	0x4017938c	2.3683805
28	0x4049ee5b	3.155173
29	0x3fa7f4ba	1.312156
30	0x40026727	2.037546
31	0x40728bc8	3.7897816
32	0x3f77b0b3	0.96753997
33	0x3f915f2b	1.1357168
34	0x3f9cbaeb	1.2244543
35	0x401cf1dc	2.452262
36	0x3ff47fd3	1.9101509
37	0x407329db	3.7994297
38	0x4038b6f1	2.8861659
39	0x3f6755e1	0.90365416
40	0x403a26a6	2.908609
41	0x3febd4a1	1.8424264
42	0x4009b48e	2.1516452
43	0x401e7c69	2.4763434
44	0x40617682	3.5228581
45	0x3f9f9f05	1.2470404
46	0x4082651c	4.0748425
47	0x402812af	2.6261404
48	0x3fade01f	1.3584021
49	0x406d8868	3.7114506
50	0x402822ef	2.6271322
51	0x40709e0d	3.7596467
52	0x406a5fd9	3.6621
53	0x401f856a	2.492518
54	0x401153f1	2.2707484
55	0x40443431	3.0656855
56	0x3fe082d5	1.7539927
57	0x3f93259d	1.1495854
58	0x4013ffa0	2.312477
59	0x400d00bd	2.20317
60	0x400cd98d	2.2007782
61	0x403eab12	2.9791913
62	0x40539f50	3.3065987
63	0x4073d09a	3.809607

weight f4 [128, 64, 3, 3]
0	0x3cab0a89	0.020879047
1	0x3da19e6b	0.07891544
2	0xbdb27964	-0.0871456
3	0x3c361ed4	0.011115748
4	0x3d909629	0.07059891
5	0x3d4cd661	0.050009135
6	0x3c8b3c2f	0.016996471
7	0xbd5f0b56	-0.05445417
8	0xbdaec1f0	-0.085330844
9	0x3d245e0c	0.040128753
10	0xbd87f6f8	-0.066389024
11	0xbb9e6843	-0.0048342063
12	0xbb8a3e0d	-0.004218823
13	0x3d98677e	0.074416146
14	0x3c268e53	0.010165769
15	0xbc93b982	-0.018032793
16	0x3ade7974	0.0016973452
17	0xbd85d326	-0.06534414
18	0xbd27debf	-0.04098391
19	0x3cdb885f	0.026798425
20	0x3ce0709d	0.027397448
21	0xbd4ced08	-0.050030738
22	0x3cf6d3c4	0.030130275
23	0x3cbd53f8	0.023111328
24	0x3c31f5f0	0.010861859
25	0xbd71edd2	-0.059064694
26	0xbcc735db	-0.024317672
27	0xbce29bf4	-0.027662255
28	0x3d296e94	0.04136522
29	0x3cd633e7	0.026147796
30	0xbd952624	-0.07282665
31	0x3d22d938	0.039757937
32	0xbc16d07b	-0.009204979
33	0xbc785530	-0.015157029
34	0xbd5303a8	-0.05151716
35	0xbda07999	-0.07835693
36	0x3c38a871	0.011270628
37	0xbd687c8d	-0.056759406
38	0x3d943ca6	0.0723813
39	0x3c8d82c0	0.01727426
40	0x3ca81934	0.02051983
41	0xbc6ed015	-0.014575978
42	0x3c91e9e1	0.017811717
43	0xbc03cbee	-0.008044226
44	0xbda521f8	-0.0806312
45	0xbd831e60	-0.06402278
46	0x3b95780a	0.004561429
47	0xbd60e565	-0.054906268
48	0x3b97f81d	0.0046377317
49	0x3c162b57	0.009165606
50	0xbcaa5c96	-0.020796102
51	0xbd25f863	-0.040520083
52	0xbca18736	-0.019717794
53	0xbd06add5	-0.032880623
54	0xbc9c709c	-0.019096665
55	0x3d10303c	0.03520225
56	0xbcff9190	-0.03119734
57	0x3c803456	0.015649956
58	0x3ce9adb0	0.028525203
59	0x3ca47abc	0.020078056
60	0xbde120a2	-0.10992552
61	0xbcc10390	-0.023561269
62	0xbc0fee43	-0.008784833
63	0x3cc5589c	0.024090104
64	0xbdc1972a	-0.094526604
65	0x3d87c673	0.06629648
66	0x3d03c8a4	0.032173768
67	0xbc1ffef1	-0.009765373
68	0x3c03cd03	0.008044484
69	0x3d43d1fb	0.047807675
70	0x3d7a1cc7	0.0610626
71	0xbd95833b	-0.07300421
72	0xbd2c87e6	-0.04212179
73	0x3b9614ae	0.004580102
74	0xbc007aaf	-0.00784175
75	0x3d4ba2a3	0.04971565
76	0x3a80dc5e	0.00098313
77	0xbd9f8564	-0.07789114
78	0xbc92ba55	-0.017911116
79	0xbda5caa9	-0.08095295
80	0xbd7feefd	-0.062483776
81	0xbd3b1418	-0.04567346
82	0x3cdda6a6	0.027057003
83	0xbbc296e4	-0.0059383977
84	0xbb9b8ba1	-0.0047468697
85	0xbcad9e17	-0.021193547
86	0x3e1b2295	0.15149911
87	0x3aa3e25a	0.0012503371
88	0xbd9118f6	-0.07084839
89	0xbd1be1d8	-0.03805718
90	0x3d74a3ee	0.059726648
91	0x3d030bd5	0.031993706
92	0xbc8bd49a	-0.01706915
93	0xbd7cd807	-0.061729457
94	0xbd907324	-0.07053211
95	0x3d580903	0.05274297
96	0x3d98f7e7	0.074691586
97	0xbd3b77cc	-0.045768544
98	0xbcd958c1	-0.026531579
99	0x3d77bfe5	0.06048574
100	0x3cc13dd0	0.023589045
101	0xbd5a5759	-0.053305957
102	0xbd458437	-0.048221793
103	0xbcb78e52	-0.02240673
104	0xbcaa2b6e	-0.020772662
105	0xbd29cdb4	-0.04145594
106	0xbd558efe	-0.05213832
107	0x3d6079a3	0.0548035
108	0x3b0bd078	0.0021333974
109	0xbd046c9b	-0.032330137
110	0xbc76378d	-0.015027893
111	0x3dbbe3f4	0.09174338
112	0xbcba62f7	-0.022752268
113	0xbcdeb9c2	-0.027188186
114	0xbcc44233	-0.023957347
115	0xbc4152a0	-0.0117994845
116	0xbd2f80e5	-0.042847533
117	0xbd28aad7	-0.04117855
118	0x3cad8794	0.021182813
119	0xbc91ea40	-0.017811894
120	0xbd0e3166	-0.03471508
121	0x3c022b06	0.007944828
122	0x3d156fcc	0.03648357
123	0xbd9bad02	-0.07601358
124	0xbc3d747c	-0.011563417
125	0xbdb1499e	-0.086566195
126	0x3d5311ae	0.051530533
127	0xbccef4fb	-0.0252633
128	0xbd879833	-0.066208266
129	0x3d67530d	0.056475688
130	0xbce74f3f	-0.02823603
131	0x3df881aa	0.121341065
132	0xbc634e7c	-0.013873693
133	0xbd13883c	-0.036018595
134	0xbc340288	-0.010986932
135	0xbcf5fe52	-0.030028496
136	0x3d869d00	0.06572914
137	0xbd4cefae	-0.050033264
138	0xbcaae409	-0.020860689
139	0x3cd127fa	0.025531758
140	0x3da9fc72	0.08300103
141	0x3d2d0b9c	0.0422474
142	0xbd9bb8af	-0.07603585
143	0xbcc790d1	-0.024361046
144	0x3cd13d27	0.025541855
145	0x3bb3b71d	0.0054844753
146	0xbcfe283f	-0.03102505
147	0x3ce77858	0.028255627
148	0x3c3c09dd	0.011476961
149	0x3c5920a6	0.013252413
150	0xbb76a767	-0.00376364
151	0x3b92749c	0.0044694673
152	0xbc1a010e	-0.0093996655
153	0x3d69a7be	0.057044737
154	0xbd1b29aa	-0.03788153
155	0xbc409663	-0.011754605
156	0xbdce4b16	-0.10072915
157	0xbc985907	-0.018597139
158	0xbc5259f1	-0.0128388265
159	0x3de7d43b	0.113197766
160	0x3c3fec6d	0.011714083
161	0x3c62ad76	0.013835302
162	0x3d28ac44	0.04117991
163	0xbd1d8cb2	-0.038464256
164	0xbd07057c	-0.032964215
165	0x3dcdc9e9	0.10048277
166	0x3d28da7a	0.04122398
167	0x3dbaba0f	0.09117519
168	0xbddb9f40	-0.10723734
169	0xbcd10b98	-0.025518224
170	0x3ccec855	0.02524201
171	0x3d84666f	0.0646485
172	0x3cb46d27	0.022024704
173	0xbd88e101	-0.06683541
174	0xbc953d5c	-0.018217735
175	0xbc2f0a1a	-0.010683561
176	0xbb7c5acb	-0.0038506265
177	0xbda8fef6	-0.08251755
178	0x3d254fd6	0.04035934
179	0xbd162d58	-0.036664337
180	0xbccf5ccb	-0.025312802
181	0x3d2421f7	0.040071454
182	0x3d8a034c	0.0673891
183	0x3db405ad	0.08790145
184	0x3c836332	0.016038511
185	0xbca09377	-0.019601567
186	0x3c75355a	0.014966333
187	0xbdba010d	-0.09082232
188	0xbdc69c14	-0.09697738
189	0x3c7a6f89	0.015285381
190	0xbd1cad47	-0.038251188
191	0x3d13ec7e	0.03611421
192	0x3ceb948d	0.028757358
193	0x3d54383d	0.051811446
194	0xbd512a37	-0.05106565
195	0x3df72836	0.120682165
196	0xbdb39b75	-0.087698855
197	0xbd175891	-0.036949698
198	0xbc9f7d95	-0.019469062
199	0xbd53d870	-0.051720083
200	0x3d7b54ec	0.061360285
201	0xbd9f406b	-0.077759586
202	0xbdeb7bad	-0.11498199
203	0x3cdd44a9	0.027010279
204	0xbd4369f8	-0.04770848
205	0xbda3947c	-0.079873055
206	0xbdbd8107	-0.09253126
207	0x380ef414	3.4082754e-05
208	0x3c6a681e	0.01430705
209	0xbcc77a74	-0.024350382
210	0xb851c41c	-5.0012124e-05
211	0xbdc782d5	-0.09741751
212	0x3d63caee	0.05561345
213	0xbba18227	-0.0049288454
214	0xbdbb8d6d	-0.09157834
215	0x3c7dc2f9	0.01548838
216	0x3d3c1ce6	0.045925997
217	0x3d3c4409	0.04596332
218	0x3c91b963	0.017788595
219	0x3c338968	0.010958053
220	0xbbd5a900	-0.0065203905
221	0x3d91585a	0.0709693
222	0xbbdaa2f2	-0.0066722566
223	0xbd3013c2	-0.042987593
224	0xbcf20437	-0.029543025
225	0xbd023796	-0.031791292
226	0x3d25ae86	0.04044964
227	0xbd3c3f8c	-0.04595904
228	0xbc97b929	-0.018520908
229	0xba87a4ed	-0.0010348834
230	0xbcab6b24	-0.020925112
231	0xbd891644	-0.066937
232	0x3d5147b7	0.051093783
233	0x3c0c5b17	0.008566639
234	0xbd280a20	-0.04102528
235	0xbd4c6d8f	-0.04990917
236	0xbd1b8528	-0.037968785
237	0xbc26e68a	-0.010186801
238	0xbca23079	-0.019798504
239	0xbcaa7403	-0.020807272
240	0x3c4b47fd	0.0124073
241	0x3c7cbd4c	0.015425991
242	0x3bdae95b	0.00668065
243	0xbd8a18a6	-0.067429826
244	0xbd157a43	-0.03649355
245	0x3babd875	0.0052443095
246	0x3d3a7ab2	0.045527168
247	0x3be9740b	0.007124429
248	0xbd0dabc1	-0.034587625
249	0x3d2d0d51	0.042249028
250	0x3d13d124	0.036088124
251	0xbdedf5f3	-0.11619177
252	0xbcf27a26	-0.02959926
253	0xbd1befa6	-0.038070343
254	0xbd7e10eb	-0.062027853
255	0x3e0bceec	0.13653153

bias f4 [128]
0	0x3d12ce5a	0.035841323
1	0x3b984926	0.004647392
2	0x3b5569cc	0.003256428
3	0x3d29dfea	0.041473307
4	0x3d145dbd	0.03622221
5	0xbba4bd2b	-0.0050274334
6	0xbc5fe54f	-0.013665511
7	0x3d159223	0.03651632
8	0xbc9d8ac6	-0.019231211
9	0x3c34eeca	0.01104326
10	0x3cf18c76	0.029485922
11	0xbcba15f5	-0.022715548
12	0xbbb38a7d	-0.0054791556
13	0xbd12b75e	-0.035819404
14	0xbb342809	-0.0027489683
15	0xbca00ef2	-0.019538376
16	0xbd134dd4	-0.035962895
17	0x3d191110	0.037369788
18	0x3cb5ad23	0.022177285
19	0xbd0f4ad6	-0.03498348
20	0xbcba4c92	-0.02274159
21	0xbbfdb7c8	-0.0077428557
22	0x3b0f3c61	0.0021856057
23	0xbbc9137c	-0.006136356
24	0x3d261a31	0.04055232
25	0x3bd2f338	0.0064376853
26	0x3c973fdb	0.018463066
27	0x3cd70db5	0.026251653
28	0x3c5ab69f	0.013349204
29	0x3ca0e19d	0.01963883
30	0xbc8fe90b	-0.017567178
31	0x3d26ec20	0.04075253
32	0xbc65e0fb	-0.01403069
33	0x3ce50b65	0.027959535
34	0x3bb8f678	0.0056446157
35	0x3bedcfdf	0.007257446
36	0xbd1aa86a	-0.03775827
37	0x3ce21c8c	0.027601503
38	0xbd00b19e	-0.03141939
39	0x3d1a8ba9	0.037730847
40	0x3cbcf203	0.023064619
41	0xbcd67787	-0.026180042
42	0x3cf783b4	0.030214168
43	0x3ca90d5f	0.020636259
44	0x3cffa53c	0.03120672
45	0xb9e68b43	-0.00043972777
46	0x3ce34349	0.027742045
47	0x3ca386d4	0.019961752
48	0x3ceea55f	0.02913159
49	0xbcc5ad7e	-0.02413058
50	0xbc122209	-0.008919247
51	0x3c509697	0.012731216
52	0x3c550fef	0.013004287
53	0xbd2b2ec6	-0.041792654
54	0x3b5a44a4	0.0033305073
55	0xbcb062fd	-0.021531576
56	0x3c96c275	0.018403271
57	0x3caba900	0.020954609
58	0xba8f9da9	-0.001095702
59	0x3b996cb9	0.00468215
60	0x3c09ad8e	0.008403195
61	0x3d1ddfbf	0.03854346
62	0xbca5750b	-0.020197412
63	0xbca9f554	-0.020746864
64	0x3d19d6ff	0.037558552
65	0x3ce93e04	0.028471954
66	0xba989573	-0.0011641219
67	0x3d2c228d	0.042025138
68	0xbb840172	-0.0040284926
69	0x3d1ce7fa	0.038307168
70	0xbd187ded	-0.037229467
71	0x3c984b2e	0.018590536
72	0x3ce5d1e5	0.028054187
73	0x3ce4775e	0.02788895
74	0x3cff2dd1	0.031149777
75	0xbcad4c42	-0.021154527
76	0xbb962a81	-0.0045827036
77	0xbbb91965	-0.005648779
78	0x3d1c6fdd	0.03819262
79	0x3a6fb658	0.0009144298
80	0x3ab33e5e	0.0013675203
81	0xbc67f135	-0.014156629
82	0x3c81f38c	0.015863203
83	0x3aaafc5b	0.0013045178
84	0x38daa2bb	0.00010425361
85	0x3b24d55e	0.002515159
86	0xbc9cfddb	-0.019164016
87	0xbccda914	-0.025105037
88	0xbd266c5e	-0.04063069
89	0x3bbc363f	0.0057437713
90	0xbcddb753	-0.027064955
91	0xbc319ddb	-0.010840858
92	0xbd1be321	-0.038058404
93	0x3bb32e00	0.00546813
94	0xbcafa590	-0.021441251
95	0x3ca98988	0.020695463
96	0x3d1a15f5	0.037618596
97	0x3b58b1e9	0.0033065027
98	0x3d1b0ec7	0.03785589
99	0x3c3e4c17	0.011614821
100	0x3d241e5e	0.040068023
101	0x3cc6d941	0.024273517
102	0x3cef82d0	0.029237181
103	0xbc27c83a	-0.010240609
104	0xbc96589e	-0.018352803
105	0x3c3c9ff4	0.011512745
106	0x3d1c6db2	0.03819055
107	0xbcc00a49	-0.023442404
108	0xbc81f444	-0.015863545
109	0x3c9daa41	0.019246222
110	0xbd02411b	-0.03180037
111	0x3d08852d	0.03333013
112	0x3d004b47	0.03132179
113	0x3c138dbf	0.009005963
114	0x3c524519	0.012833857
115	0xbd106b1b	-0.035258394
116	0xbc93c5ca	-0.01803865
117	0xbb9c68be	-0.0047732284
118	0x3b9a462a	0.0047080712
119	0x3cc12d68	0.023581222
120	0xbccef3bf	-0.025262712
121	0xbd14c12d	-0.03631704
122	0x3d0513a8	0.03248945
123	0x3bf457d0	0.007456757
124	0x3d2418ac	0.04006259
125	0xbd27dad6	-0.040980183
126	0xbd060de8	-0.032728106
127	0xbc951b8b	-0.01820161

weight f4 [128]
0	0x3f802117	1.0010098
1	0x3f8c9035	1.0981508
2	0x3f84cd68	1.0375185
3	0x3f86646b	1.0499395
4	0x3f8452d9	1.0337783
5	0x3f7d4479	0.98932606
6	0x3f826e0e	1.0189836
7	0x3f8115dc	1.0084796
8	0x3f8ea61d	1.1144444
9	0x3f83a448	1.028451
10	0x3f82b432	1.0211241
11	0x3f82b8bf	1.021263
12	0x3f838762	1.027569
13	0x3f8bba35	1.0916201
14	0x3f78f288	0.97245073
15	0x3f7ba2e3	0.9829542
16	0x3f88359c	1.064136
17	0x3f8936ba	1.0719826
18	0x3f7b5d53	0.98189276
19	0x3f7e996b	0.9945285
20	0x3f7777cb	0.96667165
21	0x3f885a8d	1.0652634
22	0x3f8a2c20	1.0794716
23	0x3f851d17	1.0399503
24	0x3f8388bc	1.0276103
25	0x3f812546	1.00895
26	0x3f74e4cd	0.9566162
27	0x3f89efc5	1.0776297
28	0x3f8399c5	1.0281302
29	0x3f764745	0.962025
30	0x3f86f54e	1.0543611
31	0x3f866c1d	1.0501744
32	0x3f8a5d72	1.0809767
33	0x3f831fda	1.0244095
34	0x3f81fc52	1.0155127
35	0x3f79edce	0.97628486
36	0x3f835092	1.0258963
37	0x3f756e4e	0.95871437
38	0x3f86159c	1.0475345
39	0x3f7e4082	0.9931718
40	0x3f8397bd	1.0280682
41	0x3f8859fe	1.0652463
42	0x3f8670f7	1.0503224
43	0x3f82abd0	1.0208683
44	0x3f83edda	1.0306962
45	0x3f8945ef	1.0724467
46	0x3f8481b7	1.0352086
47	0x3f851bb5	1.039908
48	0x3f820cf1	1.0160199
49	0x3f80b01a	1.0053742
50	0x3f84c824	1.0373578
51	0x3f817db3	1.0116485
52	0x3f890e83	1.0707554
53	0x3f845729	1.0339099
54	0x3f8305d2	1.0236151
55	0x3f8ed5a8	1.1158953
56	0x3f8af290	1.0855274
57	0x3f7d75b5	0.9900773
58	0x3f850613	1.0392479
59	0x3f8227bf	1.016838
60	0x3f7a97ed	0.9788807
61	0x3f84450f	1.0333575
62	0x3f808edc	1.0043597
63	0x3f7fe4f7	0.9995875
64	0x3f7f5895	0.9974454
65	0x3f864f1f	1.0492896
66	0x3f8330f4	1.0249314
67	0x3f8288e8	1.019803
68	0x3f7c6f16	0.98607004
69	0x3f923766	1.1423156
70	0x3f84a2e9	1.0362216
71	0x3f8124e9	1.0089389
72	0x3f813dc1	1.0096971
73	0x3f7b87cf	0.982541
74	0x3f88c2d0	1.0684452
75	0x3f82bf05	1.0214545
76	0x3f836ba7	1.0267228
77	0x3f7ec397	0.99517196
78	0x3f6f9d7d	0.93599683
79	0x3f84a63e	1.0363233
80	0x3f8a10ee	1.0786417
81	0x3f807700	1.0036316
82	0x3f7c926d	0.9866093
83	0x3f8c7dc0	1.0975876
84	0x3f7a9edd	0.97898656
85	0x3f7314e6	0.94953763
86	0x3f8f9592	1.121752
87	0x3f8f6c70	1.1204967
88	0x3f87f67a	1.0622094
89	0x3f8250f6	1.0180957
90	0x3f88e279	1.0694114
91	0x3f915231	1.1353208
92	0x3f85c81f	1.0451697
93	0x3f80b735	1.005591
94	0x3f82c487	1.0216225
95	0x3f7480d4	0.95509076
96	0x3f90cea2	1.1313059
97	0x3f7cad8f	0.9870233
98	0x3f871583	1.055344
99	0x3f89d2b9	1.0767432
100	0x3f844917	1.0334805
101	0x3f851241	1.0396196
102	0x3f7c9855	0.9866994
103	0x3f832c47	1.0247887
104	0x3f8790aa	1.0591023
105	0x3f892b89	1.0716411
106	0x3f8a28ac	1.0793662
107	0x3f909b4b	1.1297392
108	0x3f812189	1.0088359
109	0x3f88557e	1.065109
110	0x3f825a86	1.0183876
111	0x3f8474e4	1.0348172
112	0x3f88ccc2	1.0687487
113	0x3f84eba5	1.0384413
114	0x3f8292b0	1.0201015
115	0x3f860f75	1.0473467
116	0x3f85f467	1.0465211
117	0x3f844b33	1.0335449
118	0x3f882ffd	1.0639645
119	0x3f860463	1.0470089
120	0x3f877e43	1.0585407
121	0x3f8aac1b	1.0833772
122	0x3f89ad80	1.0756073
123	0x3f88d23f	1.0689162
124	0x3f817c32	1.0116026
125	0x3f8a1793	1.0788444
126	0x3f7b89b7	0.9825701
127	0x3f7d4a2e	0.98941314

bias f4 [128]
0	0xbe34a43c	-0.17640775
1	0xbe6a48ba	-0.22879305
2	0xbe00010e	-0.12500402
3	0xbe2bbc4b	-0.16771047
4	0xbe3a38ef	-0.18185781
5	0xbe2b3a14	-0.16721374
6	0xbe5d601d	-0.21618696
7	0xbe6dbdd2	-0.23216942
8	0xbe2c0884	-0.16800123
9	0xbe6d6bb3	-0.23185615
10	0xbe2722e9	-0.16321911
11	0xbe439f01	-0.19103624
12	0xbe98edda	-0.29868966
13	0xbdaef3af	-0.08542573
14	0xbe50fe10	-0.20409417
15	0xbe856c23	-0.26059064
16	0xbe3ff9f9	-0.18747701
17	0xbe4a3e12	-0.1975024
18	0xbe49df47	-0.1971408
19	0xbe83f666	-0.25773925
20	0xbe708812	-0.23489407
21	0xbe51f76a	-0.20504537
22	0xbe6b7cbd	-0.22996803
23	0xbe599928	-0.2124983
24	0xbe471bb9	-0.19444169
25	0xbe789edd	-0.24279352
26	0xbe621c0c	-0.22081012
27	0xbe6cdd40	-0.23131275
28	0xbe18be59	-0.14916362
29	0xbe4bb3c8	-0.198928
30	0xbe2dfca7	-0.1699091
31	0xbe2f89c3	-0.17142396
32	0xbe3ab1fd	-0.1823196
33	0xbe47367d	-0.1945438
34	0xbe6e324e	-0.23261377
35	0xbe5f401e	-0.21801803
36	0xbe315430	-0.17317271
37	0xbe7534a4	-0.23945862
38	0xbe15bf0b	-0.14623658
39	0xbe47d4c5	-0.19514759
40	0xbe761861	-0.24032737
41	0xbe81492c	-0.25251138
42	0xbe4f7782	-0.20260432
43	0xbe009e78	-0.12560451
44	0xbe89b000	-0.2689209
45	0xbe7da0eb	-0.24768417
46	0xbe95b1e8	-0.29237294
47	0xbe897565	-0.26847377
48	0xbde59847	-0.11210685
49	0xbe5ff7bd	-0.21871848
50	0xbe25109f	-0.16119622
51	0xbe6c343b	-0.230668
52	0xbe22c730	-0.15896297
53	0xbe382b48	-0.1798526
54	0xbe3d4bf2	-0.18486002
55	0xbe7d6011	-0.24743678
56	0xbe615d75	-0.22008307
57	0xbe31ad4b	-0.17351262
58	0xbe319ee9	-0.17345776
59	0xbe653431	-0.2238319
60	0xbe2e26be	-0.17006966
61	0xbe5d3d67	-0.21605454
62	0xbe4b7a07	-0.19870768
63	0xbe1e2e8d	-0.15447445
64	0xbe312ca5	-0.17302187
65	0xbe3b7fa2	-0.18310407
66	0xbe9a1961	-0.30097488
67	0xbe8a671f	-0.270318
68	0xbe955f04	-0.29174054
69	0xbe8e526b	-0.27797255
70	0xbe521766	-0.20516738
71	0xbe62e059	-0.22155894
72	0xbe6f64e0	-0.23378325
73	0xbe259fa0	-0.16174173
74	0xbe588986	-0.21146211
75	0xbe7ea158	-0.24866235
76	0xbe4eea6b	-0.20206611
77	0xbe294a1f	-0.16532181
78	0xbe4dd81f	-0.20101975
79	0xbe33ce89	-0.17559256
80	0xbe45d606	-0.19319925
81	0xbe8658bd	-0.26239577
82	0xbe669ff1	-0.2252195
83	0xbe2e115f	-0.16998814
84	0xbe89e721	-0.2693415
85	0xbe959c1c	-0.29220665
86	0xbe560205	-0.20899208
87	0xbe8b50a9	-0.27209976
88	0xbe441426	-0.19148311
89	0xbe8427ae	-0.25811523
90	0xbe29f0a6	-0.16595706
91	0xbe3a663b	-0.1820306
92	0xbe5bc6b0	-0.21462512
93	0xbdf86cbd	-0.12130115
94	0xbe31a0a2	-0.17346433
95	0xbe7b17dc	-0.2452082
96	0xbe3a3d2f	-0.18187402
97	0xbe3b3785	-0.18282898
98	0xbe7bd1bc	-0.24591726
99	0xbe494e96	-0.19658884
100	0xbe6ad394	-0.22932273
101	0xbde4d7e1	-0.11173988
102	0xbe7aadf3	-0.24480419
103	0xbe1048c6	-0.14090261
104	0xbe0afa38	-0.13572013
105	0xbdfd2e96	-0.12362401
106	0xbe52f89e	-0.20602652
107	0xbe466d74	-0.1937769
108	0xbe57f3a8	-0.21089041
109	0xbe03dd7e	-0.12877461
110	0xbe43435e	-0.19068667
111	0xbe3c7cc0	-0.18406963
112	0xbe5b7893	-0.21432714
113	0xbe6cd56b	-0.23128287
114	0xbe7b4e26	-0.2454153
115	0xbe50af60	-0.203794
116	0xbe2ce9ef	-0.16886114
117	0xbe5aa5f5	-0.2135237
118	0xbd952fb0	-0.07284486
119	0xbe4c649d	-0.19960256
120	0xbe258b25	-0.1616636
121	0xbe3ad277	-0.18244348
122	0xbe199b33	-0.1500061
123	0xbdd9d93b	-0.106371365
124	0xbe7740b6	-0.24145779
125	0xbe5ede3d	-0.21764465
126	0xbe3887bf	-0.18020533
127	0xbe80eb82	-0.25179678

running_mean f4 [128]
0	0xc0077e08	-2.1170673
1	0xbf4ade71	-0.7924567
2	0xc0872e9b	-4.224439
3	0xbf8294bb	-1.0201639
4	0x40195c95	2.3962758
5	0xc02dc6e0	-2.7152634
6	0xc01ea7e6	-2.4789977
7	0xbfa67816	-1.3005397
8	0xbe00c2df	-0.12574337
9	0xc006ac9c	-2.1042852
10	0xbfa0928f	-1.2544726
11	0xbe4a2420	-0.19740343
12	0xbfe4bf8c	-1.7870955
13	0xc09ec51e	-4.961562
14	0xc02699d9	-2.60314
15	0xbe4c44af	-0.19948076
16	0x3f80b45d	1.0055043
17	0xbfd4a3e2	-1.6612513
18	0xc0090032	-2.140637
19	0x3f5ab9d0	0.8543978
20	0xbd08406d	-0.033264566
21	0xc014dbdc	-2.3259192
22	0xbf6d075f	-0.9258937
23	0xc047943e	-3.118423
24	0xbfa3c2d4	-1.2793832
25	0xbf41e88e	-0.75745475
26	0x3ee1f950	0.44135523
27	0xc0351757	-2.8295496
28	0xbfa38547	-1.2775048
29	0xc00264d9	-2.0374053
30	0xbfd0b735	-1.630591
31	0xbf532be9	-0.82488877
32	0xc00f05f7	-2.234739
33	0x3fc63f1e	1.5488012
34	0xc028e317	-2.6388605
35	0xbe4380fe	-0.19092175
36	0xbf7c24dc	-0.9849374
37	0xbf84a4bb	-1.0362772
38	0x3f3c87a8	0.73644495
39	0xbf562057	-0.83643097
40	0xbf5cb829	-0.86218506
41	0xbf31c7da	-0.69445574
42	0xc00c60e1	-2.193413
43	0xc03e7dd0	-2.976429
44	0xc01a7ca4	-2.4138575
45	0xbfaa59ca	-1.3308651
46	0xc01ce98e	-2.451755
47	0xbf51aa6b	-0.8190066
48	0xbf7b5020	-0.98169136
49	0xc008d4ff	-2.1380002
50	0xbfe0a358	-1.7549849
51	0xbf893ca5	-1.0721632
52	0xbf6e5f21	-0.93113905
53	0xc02368f6	-2.5532813
54	0x3eaab5da	0.33341867
55	0xc01fecb2	-2.4988217
56	0x3eb57baa	0.3544591
57	0x3cb5bc3d	0.022184486
58	0xc0288130	-2.632885
59	0xbfc6f4c7	-1.554345
60	0xbe918785	-0.28423706
61	0xbf377a9e	-0.71671474
62	0xc040f0b2	-3.0146909
63	0x3df4c83f	0.119522564
64	0xbf517347	-0.81816524
65	0xbfefb879	-1.8728172
66	0xc018c77f	-2.3871763
67	0xbf1d7367	-0.61504215
68	0xc0098292	-2.1485944
69	0xc002eb73	-2.0456207
70	0x3f89f179	1.0776817
71	0x3eb1d890	0.34735537
72	0xbfd30e35	-1.6488711
73	0xbf6c48ac	-0.9229839
74	0xbfeb781a	-1.8396027
75	0xbfea2ed9	-1.8295547
76	0xc03b3c15	-2.925542
77	0xc02d8888	-2.7114582
78	0xbfda6044	-1.7060628
79	0xbfa6209a	-1.2978699
80	0xc036cbdc	-2.8561926
81	0x3f414c3a	0.7550694
82	0xc014964d	-2.3216736
83	0x3f2f97e9	0.6859117
84	0xc0282dbc	-2.6277914
85	0x3e3f1af3	0.18662624
86	0xbfe40bd3	-1.7816108
87	0xbd380ec7	-0.044935968
88	0xbfb757fa	-1.4323723
89	0xbfb8ddc9	-1.4442683
90	0xbfe64470	-1.7989635
91	0xbf051985	-0.51992065
92	0xbff6d110	-1.9282551
93	0x3eb02736	0.34404916
94	0xc00509de	-2.0787272
95	0xbff1641e	-1.8858678
96	0x3f45e97b	0.7730939
97	0xbf14f7fc	-0.58190894
98	0xbffdd8a2	-1.9831736
99	0xbee25c6c	-0.44211137
100	0xc00d3fd8	-2.2070217
101	0xc0814bb4	-4.040491
102	0xc020ed8f	-2.5144994
103	0xbfea8e28	-1.8324633
104	0xc060a8ab	-3.5102947
105	0xbfbfda1b	-1.4988436
106	0xbf9854a4	-1.190083
107	0x3f6c5fc0	0.923336
108	0xbf82c873	-1.0217422
109	0xbf88ee40	-1.0697708
110	0xc01224a0	-2.2834854
111	0xbfa9320d	-1.3218399
112	0xc04217b4	-3.0326967
113	0x3e2af303	0.16694264
114	0xc035de70	-2.8417015
115	0xbf8f2c22	-1.1185343
116	0x3eefa515	0.46805635
117	0xc00f8989	-2.2427695
118	0xc05c7c4f	-3.4450872
119	0xc0045579	-2.0677168
120	0xc0377e6d	-2.8670914
121	0xc037cf57	-2.87203
122	0xbf9d86c2	-1.230675
123	0xc04ac887	-3.1684892
124	0xbfb39e44	-1.4032674
125	0x3f9f1549	1.2428371
126	0xbed700a2	-0.4199267
127	0x3f84451c	1.033359

running_var f4 [128]
0	0x402c8bba	2.6960282
1	0x401e2f52	2.4716382
2	0x4080eb41	4.0287175
3	0x4032dc33	2.79469
4	0x3fe4c772	1.7873366
5	0x404fb1b4	3.2452211
6	0x4054d65f	3.3255842
7	0x404f64e4	3.2405329
8	0x400ab62f	2.1673696
9	0x401a2e4a	2.4090753
10	0x403da6a2	2.9632955
11	0x401044b6	2.2541938
12	0x400e944f	2.227802
13	0x40b19983	5.549989
14	0x4071b789	3.776827
15	0x40200057	2.5000207
16	0x3ffe901b	1.9887727
17	0x40246d57	2.5691736
18	0x4002d165	2.0440304
19	0x401bc6b7	2.4340036
20	0x401d164e	2.4544864
21	0x4035e712	2.8422284
22	0x40086aef	2.1315267
23	0x405e4da5	3.473489
24	0x4060d661	3.5130847
25	0x40711ce4	3.7673883
26	0x403c3ccf	2.9412115
27	0x3feb72b9	1.8394386
28	0x405bb488	3.4328938
29	0x40032976	2.0494056
30	0x406741f7	3.6134012
31	0x40386698	2.8812618
32	0x4020592b	2.5054424
33	0x4017f6f1	2.374447
34	0x4043ea4f	3.061176
35	0x4025a061	2.5879138
36	0x3fd282b6	1.644614
37	0x40550165	3.32821
38	0x4074516d	3.8174698
39	0x403f6d7e	2.9910579
40	0x40293546	2.6438766
41	0x401385a5	2.305032
42	0x40354424	2.832284
43	0x409f018f	4.9689403
44	0x401a0910	2.4068031
45	0x402e7a1d	2.7262032
46	0x4019f1e6	2.4053893
47	0x401c7b70	2.445034
48	0x405f4efd	3.489196
49	0x402ff157	2.7491052
50	0x404bf183	3.1866157
51	0x4028f294	2.6398058
52	0x4030e76f	2.7641256
53	0x4021c67d	2.5277398
54	0x3fd396ed	1.6530434
55	0x4016ce6a	2.3563485
56	0x400225ae	2.0335498
57	0x407bdeb8	3.9354687
58	0x401ab5cb	2.4173458
59	0x401dbc0b	2.4646022
60	0x402aeb6e	2.6706195
61	0x402501f6	2.5782447
62	0x4064939c	3.5715094
63	0x401f7172	2.4912992
64	0x403c135e	2.938682
65	0x401fb2d1	2.495289
66	0x4027d875	2.6225865
67	0x4032524a	2.7862725
68	0x402bb526	2.6829314
69	0x400c7f68	2.1952763
70	0x4014428a	2.3165612
71	0x400b8b24	2.1803675
72	0x40542b5b	3.3151462
73	0x40159f5b	2.3378513
74	0x4039c79a	2.9028077
75	0x40125b1f	2.2868116
76	0x401a606c	2.4121351
77	0x408907fb	4.282224
78	0x403a114b	2.9073055
79	0x4014333a	2.3156266
80	0x402e5c9c	2.7244024
81	0x3fe3eb59	1.7806197
82	0x3fffc6a9	1.9982501
83	0x401b0a90	2.4225197
84	0x400fc141	2.2461703
85	0x3fd763c3	1.682732
86	0x40290a1a	2.6412416
87	0x4020bbc8	2.5114613
88	0x3ffc3f6f	1.9706858
89	0x3ffa239e	1.954212
90	0x4020efd6	2.5146384
91	0x401d5fd0	2.458973
92	0x40337f54	2.8046465
93	0x4061695b	3.5220554
94	0x40061750	2.095173
95	0x4029a52e	2.6507068
96	0x3ffe2c65	1.9857298
97	0x4037ac4d	2.8698914
98	0x401e7c84	2.4763498
99	0x4048819b	3.1329105
100	0x40179c9f	2.3689344
101	0x408bab24	4.364641
102	0x401ff381	2.4992373
103	0x401f0d85	2.4852002
104	0x405582d5	3.3361104
105	0x4028e2bb	2.6388385
106	0x402b4fb6	2.6767402
107	0x40121880	2.2827454
108	0x402246c1	2.5355685
109	0x3fedfa52	1.8592017
110	0x403b2a8c	2.9244719
111	0x40179a5b	2.368796
112	0x4005a54d	2.0882142
113	0x401f815d	2.4922707
114	0x40009f05	2.0097058
115	0x4029e8d5	2.654836
116	0x4022d040	2.5439606
117	0x404e6f30	3.2255363
118	0x40b00302	5.500367
119	0x401a49ed	2.410762
120	0x40787200	3.881958
121	0x402104f6	2.5159278
122	0x402381c9	2.5547965
123	0x407ff613	3.9993942
124	0x4052f149	3.2959769
125	0x402791de	2.618278
126	0x403571bf	2.8350675
127	0x400db727	2.2143037
